cartpole_dqn.pth (torch, 6159 bytes, 4 tensors)

layers.0.weight f4 [128, 4]
0	0x3f3de6c1	0.7418023
1	0xbe39570e	-0.18099615
2	0xc06a1190	-3.657322
3	0xbf14cb93	-0.5812313
4	0xbece84ac	-0.40335596
5	0x3e99ec88	0.30063272
6	0x3e006e8b	0.12542169
7	0xbe86a2e6	-0.26296157
8	0x3e4b2f49	0.19842257
9	0x3e20533c	0.15656751
10	0xbec23248	-0.37928987
11	0xbe777ab3	-0.241679
12	0x3fc5d0a6	1.54543
13	0x3f9e699f	1.2375983
14	0xbeca7fa5	-0.3955051
15	0x3e207d36	0.15672764
16	0x3e6d0ec8	0.2315017
17	0x3d8c817a	0.06860633
18	0x3c9237ea	0.017848928
19	0x3e8e5212	0.2779699
20	0xbe848406	-0.25881976
21	0x3e9f863d	0.31157103
22	0x406e0d25	3.7195523
23	0x3f22ab9d	0.6354311
24	0x3e39b682	0.18136027
25	0xbd7b9399	-0.061420057
26	0xbe5626d1	-0.20913245
27	0x3d4e32e3	0.050341498
28	0x3cd55bd2	0.02604476
29	0x3cc321df	0.023819862
30	0x3c2d2908	0.010568865
31	0xbd377c8d	-0.044796515
32	0xbd0240ff	-0.031800266
33	0x3f53ef79	0.8278728
34	0x40750847	3.8286302
35	0x3f2ab0a0	0.6667576
36	0xbed20ae2	-0.41023928
37	0x3c5d9c17	0.013525984
38	0x3de8d9e9	0.11369688
39	0xbeaa1efe	-0.3322677
40	0xbde17543	-0.11008694
41	0xbeb3bddf	-0.35105798
42	0x3eab3439	0.3343828
43	0xbee6b7b5	-0.45062032
44	0xbfabbb17	-1.341647
45	0x3cbceead	0.023063028
46	0x403bb88f	2.9331396
47	0x3e6b339d	0.22968908
48	0xbee0478d	-0.4380459
49	0xbda8bd33	-0.08239212
50	0xc03c9139	-2.9463637
51	0xbe19f644	-0.15035349
52	0x3dc29aa2	0.0950215
53	0x3d724f81	0.059157852
54	0xbe9d85a8	-0.30766034
55	0x3e6d7f3e	0.2319307
56	0xbe73166e	-0.23739025
57	0xbc4e6e96	-0.012599608
58	0xbec9791d	-0.39350215
59	0xbe88de72	-0.26732212
60	0xbdfe32f8	-0.12412065
61	0x3d811530	0.06302869
62	0x3eb8108a	0.35950118
63	0x3d5b5220	0.053545117
64	0x3f95a688	1.1691446
65	0xbd4c5785	-0.049888153
66	0xc0405c2d	-3.005626
67	0xbf317cb4	-0.69330907
68	0x3e9bc581	0.3042412
69	0x3d4b92ad	0.049700428
70	0xbd404c00	-0.04694748
71	0x3cd398a6	0.025829624
72	0xbf0be687	-0.5464863
73	0x3e8e5985	0.27802673
74	0xbe158e86	-0.1460515
75	0xbd990373	-0.07471361
76	0xbefa165a	-0.48845178
77	0x3ec2d3c5	0.38052192
78	0x3c838614	0.016055144
79	0x3e33298c	0.17496318
80	0x3d8f7bbd	0.07006023
81	0x3e267d3e	0.16258714
82	0x3e77f7de	0.24215648
83	0xbec5c8d3	-0.3862978
84	0x3e08f5c5	0.13375004
85	0x3e307bd6	0.1723474
86	0xbf243b4b	-0.64152974
87	0x3e77c53f	0.24196337
88	0x3e8e062b	0.2773908
89	0xbeceb969	-0.40375832
90	0xbed1eae5	-0.40999523
91	0xbe54099b	-0.20706789
92	0xbf814299	-1.0098449
93	0x3e53731a	0.20649377
94	0x407845b9	3.8792555
95	0x3edad323	0.4273921
96	0x3ef47539	0.47745684
97	0xbebdddc3	-0.37083253
98	0xc098b6c9	-4.7723126
99	0xbf7bea35	-0.98404247
100	0x3ef7a925	0.48371235
101	0xbeb64432	-0.35598904
102	0xbf42802f	-0.7597684
103	0xbe0f76ef	-0.14010213
104	0x3c2c11b7	0.01050227
105	0xbea53d2b	-0.3227323
106	0x3ea2d809	0.31805447
107	0x3f32dc61	0.6986752
108	0x3e28137d	0.16413684
109	0xbc3cd77e	-0.011525987
110	0xc08020ab	-4.003988
111	0xbf7fd716	-0.9993757
112	0x3f36ef52	0.71458924
113	0x3df4a244	0.11945012
114	0x3e9430c5	0.28943458
115	0x3e86b4f5	0.26309934
116	0x3f46aa89	0.77603966
117	0x3e42a766	0.1900917
118	0xbf43fa3c	-0.765537
119	0x3e739203	0.23786168
120	0xbec6b5f4	-0.38810694
121	0xbed9420e	-0.42433208
122	0xc011d6bf	-2.278732
123	0xbf01b7d1	-0.50671107
124	0x3fe4ce80	1.7875519
125	0x3f424e6a	0.759009
126	0xbfa7b132	-1.3100951
127	0x3e27ef1f	0.16399811
128	0x3f8fe409	1.1241466
129	0xbddd62a1	-0.108098276
130	0xc0083d4b	-2.128741
131	0xbdf394d1	-0.11893619
132	0x3eefee85	0.46861663
133	0x3f357aea	0.70890677
134	0x40831765	4.096606
135	0x3f5cb1dd	0.862089
136	0xbfb0552d	-1.3775994
137	0xbf25b60a	-0.64730895
138	0x3f1dc2f7	0.6162562
139	0x3dc0e6ea	0.09419043
140	0x3da2e026	0.07952909
141	0xbe809787	-0.25115606
142	0xbda83afd	-0.08214376
143	0xbe5e26ff	-0.21694563
144	0x3fa700a3	1.3047069
145	0xbf02be2e	-0.5107144
146	0xc00cce26	-2.2000823
147	0xbec2e3dd	-0.3806447
148	0x3e99f856	0.30072278
149	0xbef63e5b	-0.48094448
150	0xbf68aa22	-0.908846
151	0x3ea30835	0.318422
152	0x3ea95c6c	0.33078325
153	0xbd7e98f0	-0.06215757
154	0x3e2fd9cb	0.17172925
155	0x3e43d351	0.1912358
156	0x3e2736e3	0.16329531
157	0xbeb89b2e	-0.36055893
158	0xbf5d5967	-0.8646454
159	0x3ead2d8c	0.33823812
160	0xbf19416f	-0.5986547
161	0xbe63b707	-0.22237788
162	0xc04ae216	-3.1700492
163	0xbe4354e1	-0.19075347
164	0x3dc8a4e4	0.097970754
165	0x3e537862	0.20651391
166	0x3d00165c	0.031271324
167	0xbe5cbe89	-0.21557058
168	0xbc557c70	-0.0130301565
169	0xbec27225	-0.3797771
170	0x3c27619a	0.010216141
171	0xbeb31be6	-0.34982222
172	0x3f3343cd	0.7002533
173	0xbe1ab5d3	-0.15108423
174	0xc06921af	-3.642681
175	0xbf061f4f	-0.52391523
176	0x3f41fe25	0.7577842
177	0xbe4666bb	-0.19375126
178	0xc06d18d2	-3.70464
179	0xbf13398e	-0.57509696
180	0xbec407f5	-0.3828732
181	0x3f0fb55c	0.5613611
182	0xbee727b0	-0.45147467
183	0xbf5e2768	-0.8677888
184	0xbf45864d	-0.7715805
185	0xbc7a4dc4	-0.01527733
186	0xc006592e	-2.099193
187	0xbeb42f8f	-0.35192534
188	0x3ee0f596	0.43937367
189	0xbe996bfe	-0.29965204
190	0xc005e5e2	-2.092156
191	0xbec3ee17	-0.38267586
192	0x3d93e88b	0.072220884
193	0x3c9d8f63	0.019233411
194	0xbeb9bdc3	-0.3627759
195	0x3e832736	0.25615853
196	0x3d9bae77	0.07601636
197	0x3e9aae14	0.30210936
198	0xbddd2dfb	-0.10799786
199	0x3ca00cfd	0.019537443
200	0x3edb771c	0.4286431
201	0x3ee36d04	0.4441911
202	0xbf405bf5	-0.75140315
203	0x3dfe4bc2	0.124167934
204	0xbf037860	-0.5135555
205	0x3f4cc442	0.79986966
206	0x3f8ab1e0	1.0835533
207	0x3eaad368	0.33364415
208	0xbdd87f26	-0.10571127
209	0xbecdb314	-0.40175688
210	0x3d8b738a	0.06809147
211	0xbee73b87	-0.45162603
212	0xbd2121cb	-0.039338868
213	0x3dd5f23b	0.104465924
214	0x3e190e08	0.14946759
215	0xbe9af5cd	-0.30265656
216	0xbd86c522	-0.06580569
217	0x3e5f69a5	0.21817644
218	0xbe6174ec	-0.22017258
219	0xbe2b4e2e	-0.16729042
220	0xbe9b5834	-0.3034073
221	0xbcb2b840	-0.021816373
222	0xc054603c	-3.3183737
223	0xbe97b53f	-0.29630467
224	0xbf9b5c74	-1.213759
225	0xbe26e070	-0.16296554
226	0x4055c19b	3.3399417
227	0x3e112982	0.1417599
228	0x3f578a15	0.8419507
229	0xbe35dd52	-0.17760208
230	0xc0ad8291	-5.4221883
231	0xbf6e6309	-0.93119866
232	0x3d18d479	0.037312005
233	0xbea4a347	-0.3215582
234	0xbe53443a	-0.20631495
235	0xbdaa724a	-0.0832258
236	0xbe5bb12e	-0.21454307
237	0x3f3577d2	0.70885956
238	0x407f99ec	3.9937696
239	0x3f50b813	0.81530875
240	0x3fc82a99	1.5638
241	0x3df96a60	0.121784925
242	0xbfcaff6f	-1.5859202
243	0x3dee7b0e	0.116445646
244	0x3ea011e1	0.3126364
245	0xbe61ea97	-0.22062145
246	0xbe71b053	-0.23602419
247	0xbe2dd84c	-0.16977042
248	0x3f314060	0.69238853
249	0xbe6dbf41	-0.23217489
250	0xc0a4ebd5	-5.153788
251	0xbf7270a1	-0.9470311
252	0x3ef32677	0.47490284
253	0x3f48fcd9	0.78510815
254	0x3ed9efe1	0.42565826
255	0x3e9763eb	0.2956842

layers.0.bias f4 [128]
0	0xbf739ca1	-0.9516087
1	0x3f5e3142	0.8679391
2	0x3fa2f5c3	1.273125
3	0xbeebc471	-0.4604831
4	0x3f9aaa69	1.2083255
5	0xbf861a23	-1.0476726
6	0x3f7bd066	0.98364866
7	0x3f6963fd	0.91168195
8	0xbfbb4dc9	-1.4633113
9	0x3fa83748	1.314187
10	0x3fa88083	1.3164219
11	0xbfcafdfc	-1.585876
12	0xbf64b69f	-0.8934116
13	0x3fa92e50	1.3217258
14	0x3f8dca87	1.1077431
15	0xbed850b0	-0.4224906
16	0xbf7af7b4	-0.98034215
17	0x3fa32974	1.2747025
18	0x3f9dc173	1.2324661
19	0x3fa70fc1	1.3051683
20	0x3f8316b0	1.0241299
21	0x3f8d5da3	1.1044201
22	0xbf081daf	-0.53170294
23	0xbfbe1afc	-1.4851985
24	0xbf80f535	-1.0074831
25	0x3f941cfd	1.1571347
26	0x3fa2a2fe	1.2705991
27	0xbfa0d264	-1.2564206
28	0xbfa35260	-1.2759514
29	0x3dde41c3	0.10852387
30	0xbf82871a	-1.019748
31	0xbf8550f1	-1.0415326
32	0xbf9524a9	-1.1651813
33	0xbef73724	-0.48284256
34	0xbf0ed007	-0.55786175
35	0x3f8378cd	1.027124
36	0xbf98fbd2	-1.195185
37	0x3ef42d1a	0.4769066
38	0xbf1ca225	-0.6118491
39	0x3f4c41cc	0.797879
40	0xbf86c173	-1.0527786
41	0x3f918689	1.1369182
42	0x3f817cc6	1.0116203
43	0xbf6abda6	-0.9169563
44	0xbf740e8a	-0.95334685
45	0xbf04c594	-0.5186398
46	0xbf202457	-0.6255545
47	0x3f081c01	0.5316773
48	0x3fa1dc27	1.264531
49	0x3f953381	1.1656343
50	0x3e0d9db9	0.13829698
51	0x3e8aa502	0.27079016
52	0x3fa9a152	1.3252356
53	0x3f3cc588	0.7373891
54	0x3f3be0c7	0.7338986
55	0xbf404567	-0.751059
56	0xbfbcad80	-1.4740448
57	0xbf831300	-1.0240173
58	0x3f99e07c	1.2021632
59	0xbf925f84	-1.1435399
60	0xbe4afb08	-0.19822323
61	0xbeff1f43	-0.49828538
62	0xbf870aa4	-1.0550122
63	0xbd84602f	-0.06463658
64	0x3efce287	0.49391577
65	0x3f841d32	1.032141
66	0x3f880032	1.062506
67	0xbf7f3d75	-0.9970315
68	0x3fa3c6e3	1.279507
69	0x3f28ce06	0.65939367
70	0x3f9bcfc8	1.2172785
71	0x3f5ef717	0.8709578
72	0xbf92e7e1	-1.1477014
73	0xbf5f36fe	-0.87193286
74	0x3fa200b3	1.2656463
75	0x3f8e9fcf	1.114252
76	0x3f672c2f	0.90301794
77	0xbdac1992	-0.08403315
78	0xbf8e7298	-1.1128721
79	0xbf73cc95	-0.9523404
80	0xbf4ce531	-0.8003722
81	0x3f81cfab	1.01415
82	0x3f666f75	0.9001382
83	0x3faa2446	1.329232
84	0x3dff1938	0.12455982
85	0x3eb60745	0.3555242
86	0x3f3b0d2d	0.7306698
87	0xbf5771da	-0.841581
88	0xbf7654ab	-0.96222943
89	0x3f9f293e	1.2434461
90	0x3f470e19	0.77755886
91	0x3f782664	0.9693358
92	0x3f10dfcf	0.56591505
93	0x3fa598f6	1.2937305
94	0xbfaaa8e7	-1.3332795
95	0x3fa463d5	1.2842966
96	0x3f9f721f	1.2456702
97	0x3fa83fd8	1.3144484
98	0xbf6ad8f2	-0.9173728
99	0x3ea2ddcd	0.31809846
100	0xbf6b60f6	-0.91944826
101	0x3f8dfe47	1.1093224
102	0xbfb12237	-1.3838567
103	0x3f84e49f	1.038227
104	0x3f2c57bb	0.67321366
105	0xbea33c3d	-0.31881896
106	0x3f0ce1ec	0.5503223
107	0xbf6e90e5	-0.9318984
108	0xbf8e1f05	-1.1103216
109	0x3ea0681f	0.31329438
110	0x3f98affa	1.1928704
111	0xbfac32cb	-1.3453001
112	0xbf0f5ef7	-0.5600428
113	0x3fac346c	1.3453498
114	0x3f5c75f7	0.861175
115	0x3e28c07d	0.16479678
116	0x3f891f2b	1.0712637
117	0x3ee3cc53	0.44491825
118	0x3f3aeadf	0.73014635
119	0xbf97d0f4	-1.1860642
120	0x3f6f24b1	0.9341536
121	0x3f815e6d	1.0106941
122	0x3f82eabc	1.0227885
123	0x3f942b41	1.15757
124	0xbf0a8ed1	-0.5412417
125	0x3f9e11ee	1.2349222
126	0x3f7385e5	0.9512618
127	0xbf9f13c5	-1.2427908

layers.2.weight f4 [2, 128]
0	0xc0a1c799	-5.055615
1	0x3ed1faff	0.41011807
2	0x3f42b4e6	0.7605728
3	0xbf7f6005	-0.9975589
4	0x3f5c73c5	0.8611415
5	0xc0882ded	-4.255606
6	0x3f3f5b7c	0.7474897
7	0x3f3705e5	0.7149337
8	0xc070138d	-3.7511933
9	0x3eeb836f	0.45998713
10	0x3efd6c8c	0.49496877
11	0xc023c34d	-2.5587952
12	0xc0894363	-4.289476
13	0x3f41f2d0	0.7576113
14	0x3f01ce2e	0.5070523
15	0x3d97eee7	0.07418614
16	0xc0201b30	-2.5016594
17	0x3f51e352	0.8198749
18	0x3f044d36	0.51680315
19	0x3f156d08	0.58369493
20	0x3f0b2f0c	0.5436866
21	0x3f4d2886	0.8013996
22	0xbc0eed6f	-0.008723601
23	0xc0473def	-3.1131551
24	0x3efe4979	0.4966543
25	0x3f444bae	0.7667798
26	0x3f2a459c	0.66512465
27	0xbf689214	-0.908479
28	0xbf54643b	-0.8296544
29	0xbed34e95	-0.4127089
30	0xbf9332b6	-1.1499851
31	0xbfd4cdd8	-1.6625319
32	0xbfd6854f	-1.6759433
33	0xc040722c	-3.0069685
34	0xbf6e316b	-0.93044156
35	0x3f273c35	0.65326244
36	0xc071df5e	-3.7792583
37	0x3f12773d	0.57213193
38	0xbe9096e0	-0.28240108
39	0x3ee88337	0.4541261
40	0xc0274de2	-2.6141286
41	0x3f20f38e	0.62871635
42	0x3f0680d2	0.52540314
43	0xc0bacf67	-5.8378177
44	0xc0bd371f	-5.9129786
45	0xbe95c934	-0.29255068
46	0xbf44b312	-0.7683574
47	0xbd12668e	-0.035742335
48	0x3f2d34b6	0.67658556
49	0x3f49d04e	0.7883347
50	0xbea881c8	-0.32911515
51	0x3e3c8742	0.18410972
52	0x3efd7b5d	0.4950818
53	0x3eeed193	0.46644267
54	0x3ee9f009	0.45690945
55	0xc0905c76	-4.5112867
56	0xc019b6af	-2.4017751
57	0x3e0cec09	0.13761915
58	0x3f0da74e	0.5533341
59	0xc0989401	-4.768067
60	0xbe882b9f	-0.2659578
61	0xbc627676	-0.013822189
62	0xbf13425a	-0.5752312
63	0x3ed9fcf4	0.425758
64	0xbe97ce3d	-0.29649535
65	0x3ed513eb	0.4161676
66	0x3f1b8e19	0.607637
67	0xbfead123	-1.8345073
68	0x3f0a48f4	0.5401757
69	0x3e250ac6	0.16117391
70	0x3f1d9386	0.6155323
71	0x3f36e25c	0.71439147
72	0xc088b0ef	-4.2715983
73	0xc034b352	-2.8234448
74	0x3f127ddc	0.57223296
75	0x3ec39ae7	0.3820412
76	0x3ee76a91	0.4519849
77	0xc003cbc9	-2.059313
78	0xbf91556a	-1.1354191
79	0xc0c8a68b	-6.27033
80	0xc08928e3	-4.286241
81	0x3f12e506	0.5738071
82	0x3f26b2a5	0.6511634
83	0x3f1a9098	0.6037688
84	0xbeb9ae2c	-0.36265695
85	0x3ee19383	0.44057855
86	0xbd762d3d	-0.060101736
87	0xbf9a7a4a	-1.206857
88	0xc0a8f1f9	-5.2795377
89	0x3f24b05e	0.64331615
90	0x3eed4371	0.46340516
91	0x3ed6bb3f	0.41939732
92	0x3f1ecd95	0.62032443
93	0x3f668485	0.9004596
94	0xc06b953f	-3.6809843
95	0x3f231d34	0.63716435
96	0x3f477b37	0.77922386
97	0x3f5506de	0.83213603
98	0xc0be0665	-5.9382806
99	0x3ea52a14	0.32258666
100	0xc0862b41	-4.19278
101	0x3f0ea275	0.5571664
102	0xc0423de0	-3.0350266
103	0x3f17946c	0.5921085
104	0x3f2099ef	0.62734884
105	0x3cc8d71c	0.024516635
106	0x3e8c7b43	0.2743779
107	0xc0b4afaa	-5.6464434
108	0xc07b3fef	-3.9257772
109	0x3ebb74b6	0.3661248
110	0x3f39520d	0.72390825
111	0xc04298ac	-3.0405684
112	0xbc9e9c3c	-0.019361608
113	0x3f322e8e	0.69602287
114	0x3f185bc2	0.5951501
115	0x3ef948d3	0.48688373
116	0x3f45577f	0.77086633
117	0x3f114995	0.567529
118	0x3ebf0a3e	0.37312502
119	0xbf35d06a	-0.7102114
120	0x3f5ea63e	0.86972415
121	0x3f12e060	0.5737362
122	0x3f1bed5b	0.6090905
123	0x3f3cc5aa	0.7373911
124	0xbf346ef1	-0.70481783
125	0x3f2bd746	0.67125356
126	0x3f301cab	0.68793744
127	0xc03060d5	-2.7559102
128	0xc050f886	-3.2651687
129	0x3f09be2d	0.5380581
130	0x3f3bd33b	0.7336919
131	0xbf93a937	-1.1536015
132	0x3f374784	0.715935
133	0xc06e6bae	-3.7253222
134	0x3f3eddb6	0.74557054
135	0x3f2b0428	0.66803217
136	0xc0804df5	-4.0095162
137	0x3f288b58	0.6583762
138	0x3f3309a3	0.6993658
139	0xc0313143	-2.7686317
140	0xc04c1c9a	-3.1892457
141	0x3f2afd0f	0.66792387
142	0x3f193dac	0.5985973
143	0xbd593965	-0.05303325
144	0xc0140a37	-2.3131235
145	0x3f3b6a94	0.732095
146	0x3f33d47a	0.7024609
147	0x3f3693df	0.71319383
148	0x3eca71a8	0.39539838
149	0x3f1807cc	0.593869
150	0x3dae2b03	0.085042976
151	0xc08011d1	-4.002175
152	0xc0a38e1a	-5.1110964
153	0x3f2f6584	0.68514276
154	0x3f2429a3	0.6412603
155	0xc09e17b9	-4.940396
156	0xc0001264	-2.0011225
157	0xbd588497	-0.052860823
158	0xc0233242	-2.5499425
159	0xbfaef09d	-1.3667179
160	0xc0248d18	-2.5711117
161	0xbf9737ef	-1.1813945
162	0xbf74ae01	-0.9557801
163	0x3f16e039	0.58935887
164	0xc09626f0	-4.692253
165	0x3e582f9e	0.21111915
166	0xbf45925c	-0.7717645
167	0x3ed021ae	0.40650696
168	0xc0510669	-3.2660162
169	0x3f227bff	0.63470453
170	0x3f1fbed3	0.6240055
171	0xc0367fab	-2.8515422
172	0xc038b5ca	-2.8860955
173	0xbf0ec695	-0.5577176
174	0xbfc2259a	-1.5167725
175	0xbf212bc9	-0.62957436
176	0x3f282b78	0.6569133
177	0x3f27d531	0.6555968
178	0x3e12aea5	0.14324434
179	0x3f0fd1c2	0.5617944
180	0x3f2698fa	0.65077174
181	0x3ee3aaa7	0.44466135
182	0x3f01128e	0.5041894
183	0xc00c81bd	-2.1954186
184	0xc028f2f8	-2.6398296
185	0xc0bac2b0	-5.8362656
186	0x3f25924d	0.6467636
187	0xc04c65b2	-3.193707
188	0xbfa4def9	-1.2880546
189	0xbd10f431	-0.03538913
190	0xc0d2b228	-6.5842476
191	0xbe83f263	-0.25770864
192	0x3ef364fe	0.47537988
193	0x3f1faa89	0.6236959
194	0x3eec2495	0.4612166
195	0xbfccf641	-1.6012651
196	0x3f2f2c25	0.68426734
197	0x3f0b5f53	0.5444233
198	0x3f1d4464	0.6143248
199	0x3f19dda7	0.6010384
200	0xc01ac9fe	-2.4185786
201	0xc0837cdf	-4.108993
202	0x3f20a6d3	0.62754554
203	0x3f00912a	0.502215
204	0x3f0e6364	0.5562041
205	0xbfc612cb	-1.5474485
206	0x3fd29900	1.6452942
207	0xc04526b2	-3.0804868
208	0xc051a5bc	-3.2757406
209	0x3f03cee4	0.51487565
210	0x3f3dd78a	0.7415701
211	0x3f2fef3c	0.6872442
212	0xbd4942cb	-0.049135964
213	0x3edb4570	0.42826414
214	0xbf3b1336	-0.7307619
215	0xc038266e	-2.8773456
216	0xc07e7744	-3.9760294
217	0x3f308757	0.6895651
218	0x3ef6fc41	0.4823933
219	0x3ef43f03	0.47704324
220	0x3d5757c8	0.05257395
221	0x3f43a2c4	0.76420236
222	0xc0874cf2	-4.2281427
223	0x3f3432b7	0.70389885
224	0x3f39b00a	0.7253424
225	0x3f35976c	0.70934176
226	0xc02c56c8	-2.6927967
227	0x3de438e6	0.11143665
228	0xc0a97745	-5.2958093
229	0x3f0c99b9	0.5492206
230	0xbfe6879f	-1.8010138
231	0x3f2384a7	0.63874286
232	0x3efc6b72	0.49300724
233	0x3ccf8401	0.025331499
234	0x3ea23b7f	0.31686017
235	0xc05df970	-3.4683495
236	0xc056b230	-3.3546257
237	0x3f658720	0.8965931
238	0x3f3bbea8	0.73337793
239	0xc0311cee	-2.7673907
240	0xbca18174	-0.019715048
241	0x3f3ac901	0.7296296
242	0x3ef9c0e4	0.48779976
243	0x3ed598a1	0.4171801
244	0x3f3aa67f	0.729103
245	0x3e49d38e	0.19709608
246	0x3eb9bf45	0.3627874
247	0xc0367a36	-2.8512092
248	0x3f40b98c	0.7528312
249	0x3f1da3d4	0.61578107
250	0x3f276a54	0.6539662
251	0x3f42060e	0.7579049
252	0xbfd46583	-1.6593479
253	0x3f3e3bbf	0.74309915
254	0x3f243638	0.6414523
255	0xbfe7954c	-1.8092437

layers.2.bias f4 [2]
0	0x3f49af7a	0.7878338
1	0x3f42f483	0.76154345
